Lab3/fmnist.tflite (tflite, 409036 bytes, 4 tensors)

arith.constant f4 [10, 128]
0	0xbd9effb6	-0.07763617
1	0xbe286435	-0.16444476
2	0xbe854d61	-0.26035598
3	0x3e3d3af7	0.18479525
4	0x3dac1cdb	0.08403941
5	0x3dca5e3a	0.098812535
6	0x3e0e9e44	0.13927561
7	0xbbd26195	-0.006420324
8	0xbe6b074f	-0.22952007
9	0x3e7237dc	0.23654121
10	0xbd2fc46c	-0.042911932
11	0xbedb5a57	-0.4284236
12	0x3e3fd5e1	0.18733932
13	0x3da7c0d1	0.08191074
14	0xbe00d5bf	-0.12581538
15	0x3e56eaad	0.20987959
16	0xbd972dde	-0.07381795
17	0x3d94e38b	0.07269963
18	0x3e0b07e8	0.13577235
19	0xbcad71ff	-0.021172522
20	0xbe851840	-0.25995064
21	0xbe357903	-0.17721944
22	0x3def33cc	0.11679801
23	0xbe9ec603	-0.31010446
24	0xbcf68411	-0.030092271
25	0x3daca3d4	0.08429685
26	0x3d5e6381	0.054294113
27	0x3e062b41	0.13102438
28	0x3e34e6f2	0.17666224
29	0x3cccf002	0.025016788
30	0xbde079a2	-0.109606996
31	0x3e31b355	0.17353566
32	0x3d1ff6f8	0.039053887
33	0x3e09cd9a	0.13457337
34	0xbe135335	-0.1438721
35	0xbd8faf74	-0.07015887
36	0xbc9b2020	-0.018936217
37	0xbb657c0c	-0.0035016565
38	0xbde07dbb	-0.10961481
39	0x3bde8732	0.006791019
40	0x3cea8e8f	0.02863243
41	0xbe9750c6	-0.29553813
42	0xbce19818	-0.027538344
43	0xbdf5baca	-0.11998518
44	0x3e230187	0.15918551
45	0x3cf0350c	0.02932217
46	0x3da8d840	0.082443714
47	0xbc9fef47	-0.019523276
48	0x3d1baca4	0.03800644
49	0xbca394f4	-0.019968487
50	0xbdfd87ab	-0.12379392
51	0xbd162dbb	-0.036664706
52	0xbde490db	-0.111604415
53	0x3e566c96	0.2093986
54	0xbd904fda	-0.070464805
55	0x3e8e52a3	0.27797422
56	0x3da1f507	0.079080634
57	0x3c9a3736	0.018825155
58	0x3cea8501	0.028627874
59	0xbda39325	-0.0798705
60	0x3e7aca92	0.24491337
61	0xbdf8fca3	-0.12157562
62	0xbe9a750e	-0.3016743
63	0x3e272bf2	0.16325358
64	0xbe869492	-0.26285225
65	0x3dc09e4b	0.09405192
66	0x3e44f9b6	0.19235882
67	0xbda98323	-0.082769655
68	0xbd6216a3	-0.05519737
69	0x3dd33028	0.103119195
70	0xbdf84b84	-0.121237785
71	0x3d3d891b	0.046273332
72	0xbdfac596	-0.12244718
73	0x3e11ebbe	0.14250085
74	0x3da87fda	0.08227511
75	0xbe578b69	-0.21049275
76	0xbe258940	-0.16165638
77	0x3dac2d40	0.08407068
78	0xbd1e2318	-0.038607687
79	0xbe2772f3	-0.16352443
80	0x3d60fb57	0.054927196
81	0xbd748433	-0.059696387
82	0xbe7c4a8d	-0.24637814
83	0x3d8687f3	0.06568899
84	0xbd9270b5	-0.071504034
85	0xbe88b7c7	-0.2670271
86	0x3d9d597d	0.07683084
87	0x3e0ed021	0.13946582
88	0x3bde47cf	0.0067834626
89	0x3d996bb3	0.07491245
90	0xbe29c346	-0.16578397
91	0xbe5761cd	-0.21033402
92	0x3db56b20	0.08858323
93	0xbe2d3635	-0.1691521
94	0x3dbc53be	0.0919566
95	0x3dec47ad	0.115371086
96	0xbd736923	-0.059426438
97	0x3e6f4dc0	0.23369503
98	0x3befcfe3	0.007318483
99	0x3dd782bc	0.105229825
100	0xbe07ca5d	-0.13260789
101	0xbeead06a	-0.45862132
102	0x3d82340c	0.063575834
103	0xbd4a84ee	-0.049443178
104	0x3c604cbb	0.013690169
105	0x3e06c6d4	0.13161784
106	0xbd96c37a	-0.07361503
107	0xbda9230e	-0.08258639
108	0xbd0484a1	-0.032353047
109	0xbb9b3f53	-0.0047377734
110	0x3c435e93	0.011924404
111	0x3e0785ae	0.13234589
112	0xbce5f1ec	-0.028069459
113	0xbe2cf107	-0.1688882
114	0xbe450654	-0.19240695
115	0x3d4b6f98	0.04966697
116	0xbbf531cc	-0.007482743
117	0xbe41ed94	-0.18938285
118	0xbe9cd0d7	-0.30628082
119	0x3db48cee	0.08815943
120	0xbddfc572	-0.109263316
121	0xbd8c340a	-0.06845863
122	0x3c5b3d51	0.013381318
123	0x3d49ee60	0.049299598
124	0xbec09bd9	-0.37618902
125	0xbd2493bf	-0.040179964
126	0xbe4e06b6	-0.20119748
127	0xbba3fa78	-0.0050042234
128	0x3d97894a	0.07399233
129	0xbde75f1d	-0.11297438
130	0xbf1d1f7e	-0.6137618
131	0x3e0386f9	0.12844457
132	0x3e2ac198	0.16675413
133	0xbe2c125f	-0.16803883
134	0xbd2ac11e	-0.041688077
135	0xbe81c0bd	-0.2534236
136	0xbe80fb4a	-0.25191718
137	0xbc21f860	-0.009885877
138	0xbe835df0	-0.25657606
139	0xbe8e29fd	-0.2776641
140	0xbca0d961	-0.019634904
141	0xbc881ae8	-0.016614392
142	0x3de19bf5	0.110160746
143	0x3e1316ac	0.14364117
144	0x3e24bded	0.16088076
145	0x3e828f24	0.25499833
146	0x3e0d3af9	0.13792028
147	0x3df29967	0.118456654
148	0xbe255bc1	-0.16148283
149	0xbd37a6ba	-0.044836737
150	0x3e389a65	0.18027647
151	0xbf20593f	-0.6263618
152	0x3e82a9c5	0.2552015
153	0x3dedb413	0.11606612
154	0x3d1ca166	0.03823986
155	0xbeb459c4	-0.35224736
156	0xbcf68151	-0.03009096
157	0xbe3963fc	-0.18104547
158	0xbe7be8be	-0.24600503
159	0xbe0403eb	-0.1289212
160	0x3d8a43eb	0.067512356
161	0xbaf91acc	-0.0019005178
162	0x3d17f7cf	0.037101563
163	0xbd699d78	-0.05703494
164	0xbea0d51f	-0.31412598
165	0xbd1087c1	-0.035285715
166	0x3e2614cf	0.16218875
167	0x3e8eaf68	0.278682
168	0xbe8ff5a3	-0.28117093
169	0x3e996069	0.29956368
170	0x3dba2888	0.09089762
171	0xbe190887	-0.14944659
172	0xbe116a14	-0.14200622
173	0x3dc426f0	0.09577739
174	0xbc666547	-0.014062232
175	0x3de933cf	0.11386835
176	0xbd85bc5e	-0.06530069
177	0x3e77a509	0.2418405
178	0xbe681d87	-0.22667514
179	0xbd8ac2ec	-0.0677546
180	0x3e47526b	0.19465034
181	0xbed6ec58	-0.4197719
182	0x3d75a1c3	0.05996872
183	0x3e060751	0.13088728
184	0xbd8c2e80	-0.06844807
185	0x3e2b4461	0.16725303
186	0xbebf4b08	-0.37361932
187	0x3e753c41	0.23948766
188	0x3e512622	0.20424703
189	0xbecccbe0	-0.39999294
190	0xbe24a5b1	-0.16078831
191	0xbd2ef96f	-0.042718347
192	0xbe9b80ed	-0.303718
193	0x3e9a5b0b	0.30147585
194	0xbe1c8a36	-0.15287098
195	0x3dc55b45	0.09636549
196	0x3e32411e	0.17407653
197	0xbe8aa305	-0.270775
198	0xbc91fb09	-0.017819898
199	0xbea04114	-0.3129965
200	0xbd406070	-0.04696697
201	0xbe93d8e7	-0.2887642
202	0x3e88aa83	0.2669259
203	0xbe97dbd6	-0.2965991
204	0x3d440709	0.04785827
205	0x3df6f396	0.12058179
206	0x3e61dead	0.220576
207	0xbe6fa028	-0.23400939
208	0x3cd6ec48	0.026235715
209	0x3d946a3b	0.07246824
210	0xbd8ad5d9	-0.067790695
211	0x3e6aa05a	0.22912732
212	0x3d6d8e0d	0.0579968
213	0xbeaddd11	-0.33957723
214	0x3d74287a	0.059608914
215	0xbe5a853e	-0.2133989
216	0x3e05eb87	0.13078128
217	0x3d0dde0b	0.034635585
218	0xbde97382	-0.113989845
219	0x3e4ebced	0.20189257
220	0xbe5637bf	-0.20919703
221	0xbe21579d	-0.15756078
222	0x3ea766fd	0.3269576
223	0x3e01960c	0.12654895
224	0xbe88f307	-0.26747915
225	0x3e470fb5	0.19439586
226	0xbe83d173	-0.25745735
227	0xbe5749e3	-0.2102428
228	0xbe233056	-0.15936407
229	0xbdea8b05	-0.11452297
230	0x3e45dfdb	0.19323675
231	0xbc8d0a53	-0.017216837
232	0xbc0a90d2	-0.008457379
233	0x3dd07c08	0.10179907
234	0xbdbe0055	-0.09277407
235	0xbea9f3d2	-0.33193833
236	0xbeb0e495	-0.34549394
237	0x3db4a6ba	0.08820863
238	0xbea96894	-0.330876
239	0x3e464fef	0.1936643
240	0x3e51e967	0.20499192
241	0x3e935d99	0.28782347
242	0xbc281d06	-0.010260826
243	0xbe2c17ff	-0.16806029
244	0xbe86ef74	-0.26354563
245	0x3e02622d	0.12732764
246	0xbeaca033	-0.33715972
247	0x3d23cacf	0.039988335
248	0x3e3f93cc	0.18708724
249	0x3e6f5ec0	0.23375988
250	0xbe627336	-0.22114262
251	0xbe3a5f06	-0.18200311
252	0x3ec3e92e	0.3826384
253	0x3e681015	0.22662385
254	0xbe78979d	-0.24276586
255	0xbe82416d	-0.2544054

arith.constant1 f4 [128, 784]
0	0x3dc20235	0.09473077
1	0x3d94fa68	0.07274324
2	0x3d80f687	0.06297021
3	0xbc3a910e	-0.011387123
4	0xbd5f20c8	-0.054474622
5	0xbaaad155	-0.0013032357
6	0xbd92ed29	-0.07174141
7	0xbd9dfec9	-0.07714612
8	0xbd80076b	-0.06251415
9	0xbbefc8d5	-0.007317642
10	0x3e3a63ce	0.18202135
11	0x3e1ee211	0.15515925
12	0xbd37283f	-0.044716116
13	0x3d09d396	0.03364905
14	0x3dbbf29a	0.09177132
15	0xbcbf6ebc	-0.023368232
16	0xbcb5adf0	-0.022177666
17	0x3e046129	0.12927689
18	0x3d7aa86f	0.061195787
19	0x3dc3e1f2	0.0956458
20	0x3d7de93d	0.06199001
21	0x3d8f25c3	0.06989624
22	0x3d5cd39a	0.053912736
23	0x3d31daa5	0.043421406
24	0xbdac2fcf	-0.08407556
25	0xbb49dc4e	-0.0030801478
26	0x3d51fa89	0.05126432
27	0x3d2432e8	0.04008761
28	0x3d8dc329	0.069219895
29	0x3d8c891d	0.0686209
30	0xbd569a9a	-0.052393533
31	0xbd56f934	-0.052483752
32	0xbd904458	-0.070442855
33	0xbc888518	-0.016665027
34	0xbd8a5074	-0.067536265
35	0xbd7a84ad	-0.061161686
36	0x3d66c6e5	0.056342024
37	0xbb54862d	-0.0032428608
38	0x3e1e349d	0.15449758
39	0x3c55291c	0.0130102895
40	0x3bbd3c85	0.0057750368
41	0xbd14785c	-0.036247596
42	0xbcb6bb40	-0.022306085
43	0xbd31cfdf	-0.043411132
44	0x3bcfea41	0.006345064
45	0x3df7a4df	0.120919935
46	0x3c507abf	0.012724577
47	0x3dacf091	0.08444322
48	0x3ce00ad7	0.027348919
49	0xbd6d70b4	-0.05796881
50	0x3dca5b3a	0.09880681
51	0x3d010e12	0.03150756
52	0xbc2b2640	-0.010446131
53	0xbd72776c	-0.05919592
54	0x3d2dc4e1	0.042424086
55	0x3e074881	0.13211252
56	0x3da05726	0.07829122
57	0x3dea2902	0.11433603
58	0xbdb46f1a	-0.088102534
59	0xbdbfd004	-0.09365848
60	0xbdc6cbab	-0.09706815
61	0xbd9f9ab3	-0.077931784
62	0x3ca0ee2b	0.019644817
63	0xbd869a41	-0.0657239
64	0x3cbd955a	0.023142505
65	0x3b4bd34a	0.003110128
66	0xbcf94415	-0.030427972
67	0xbdab8688	-0.08375269
68	0xbce7a799	-0.028278159
69	0xbd806b38	-0.0627045
70	0xbdbd72d1	-0.09250415
71	0xbd993b73	-0.07482042
72	0xbd62d436	-0.05537816
73	0x3d503c55	0.050838787
74	0xbd10f964	-0.035394087
75	0xbc27446a	-0.010209182
76	0xbc5d0abb	-0.013491328
77	0xbc90ea80	-0.017689943
78	0xbda829d2	-0.082111016
79	0xbd6c8369	-0.05774251
80	0x3d8e8078	0.06958097
81	0x3d920352	0.071295395
82	0x3b017172	0.0019751457
83	0x3e16d185	0.14728363
84	0x3da81bbc	0.08208415
85	0xbca741f4	-0.020417191
86	0xbca21b05	-0.019788275
87	0xbc6ebbd7	-0.014571152
88	0xbd0be5c4	-0.03415467
89	0xbdc4ac03	-0.09603121
90	0xbdd43bfd	-0.10363004
91	0xbddda3b5	-0.1082224
92	0xbd682d30	-0.05668372
93	0xbdd02911	-0.10164083
94	0xbc92e98f	-0.017933635
95	0xbda8774c	-0.08225879
96	0xbd90d816	-0.07072465
97	0xbdcfb533	-0.10141983
98	0xbd14cd04	-0.03632833
99	0xbd1da8ec	-0.038491175
100	0xbd218c43	-0.039440405
101	0x3c1241e9	0.008926847
102	0x3d1118fb	0.035424214
103	0xbc0e5fb0	-0.008689806
104	0x3ce05839	0.027385818
105	0xbd87aa2c	-0.066242546
106	0xbd76acb1	-0.060223285
107	0xbd09694b	-0.03354768
108	0x3c5c0cb3	0.013430762
109	0x3dee02bc	0.11621615
110	0x3c9fc1d5	0.019501606
111	0xbd529e31	-0.051420394
112	0x3da8ed2d	0.08248363
113	0x3d9bc6a3	0.07606246
114	0x3d8f72ae	0.07004295
115	0x3d504a9f	0.050852414
116	0xbb822581	-0.003971756
117	0xbd63cfe5	-0.055618186
118	0xbc0a71d1	-0.0084499875
119	0xbdcee85e	-0.10102914
120	0xbd47974b	-0.04872827
121	0x3bf261cf	0.0073969136
122	0xbdb1c046	-0.086792514
123	0xbdd05e82	-0.10174276
124	0x3d8516bf	0.06498479
125	0xbbd03fb4	-0.0063552503
126	0xbdd01e67	-0.10162049
127	0xbd0c4f0f	-0.034255084
128	0xbd1248cf	-0.035713967
129	0xbdc76d57	-0.09737652
130	0xbd8da802	-0.069168106
131	0x3d995897	0.074876
132	0x3d4857a3	0.048911702
133	0xbd9482b6	-0.07251494
134	0xbd4c0e05	-0.049818058
135	0x3d23bf56	0.039977394
136	0x3d6205fd	0.055181492
137	0x3d40322c	0.046922848
138	0x3d371f0b	0.04470734
139	0x3e43d088	0.19122517
140	0x3d5f0df2	0.05445666
141	0x3deefc51	0.11669219
142	0x3da5fc93	0.08104815
143	0xbc8f2faa	-0.017478783
144	0x3d20b36d	0.039233614
145	0xbdf6d217	-0.1205179
146	0xbdbc223b	-0.091862164
147	0xbc7b0c17	-0.015322707
148	0x3b468c2c	0.0030295951
149	0xbc3c2988	-0.011484511
150	0x3c74d063	0.014942261
151	0x3d202ccf	0.039105233
152	0x3ddc1a93	0.10747256
153	0x3d425056	0.047439896
154	0x3dc299d9	0.09502
155	0x3c22bb5d	0.009932366
156	0xbcb1ac7a	-0.021688689
157	0x3d8236c4	0.06358102
158	0xbd17760f	-0.036977824
159	0x3c6c4056	0.014419636
160	0xbd787be3	-0.060665023
161	0xbdad923d	-0.08475158
162	0xbde0a3fd	-0.10968778
163	0xbd955fad	-0.07293639
164	0xbc830982	-0.015995745
165	0xbd65cbc9	-0.056102548
166	0x3e066187	0.13123141
167	0x3e7914a3	0.24324279
168	0x3df4aa18	0.11946505
169	0x3d9d8828	0.07691985
170	0xbd06ef9f	-0.032943364
171	0x3ddc6302	0.10761072
172	0xbc95e0b6	-0.018295627
173	0x3a807b64	0.0009802398
174	0x3c373502	0.011182072
175	0xbd196fb6	-0.03746005
176	0xbdff2f59	-0.12460203
177	0xbd335ed8	-0.043791622
178	0xbd6a29d2	-0.05716879
179	0xbd13fb95	-0.0361286
180	0x3d8b80c3	0.06811669
181	0x3af8b31d	0.0018974278
182	0x3dccdf28	0.10003501
183	0xbc04ccd7	-0.008105478
184	0x3dbc29d8	0.091876686
185	0x3c2775b3	0.010220933
186	0x3d74adfa	0.05973623
187	0x3d181524	0.037129536
188	0xbdcd70f1	-0.100313075
189	0xbd4b10b8	-0.04957649
190	0x3cbe4eb4	0.023230888
191	0xbcbd20e1	-0.023086967
192	0xbc8f61c8	-0.01750268
193	0x3d2b1b61	0.041774157
194	0x3df75586	0.12076859
195	0x3e1c2b39	0.15250863
196	0x3da08fcb	0.07839926
197	0x3da7f4b7	0.082009725
198	0xbc9ea5e5	-0.019366214
199	0x3c109556	0.008824667
200	0x3c345d0b	0.011008511
201	0xbd30e509	-0.043187175
202	0xbdad815f	-0.08471941
203	0xbd73d65a	-0.059530593
204	0xbd89fa73	-0.067372225
205	0xbd7f6fa7	-0.06236234
206	0xbd0ea4ed	-0.034825254
207	0x3d1d04d6	0.03833469
208	0xbcfdf549	-0.03100075
209	0x3d841c0a	0.064506605
210	0x3d5eaf5c	0.054366454
211	0xbdb41ab3	-0.08794155
212	0xbc64d6a9	-0.013967195
213	0x3cd2f739	0.02575265
214	0x3d022910	0.03177744
215	0x3b1d4a9e	0.0024000774
216	0x3d2ca094	0.042145327
217	0xbd8d459c	-0.068980426
218	0xbd8edf03	-0.0697613
219	0xbc15f754	-0.009153206
220	0xbd1a1bde	-0.037624232
221	0x3e4411a7	0.19147359
222	0x3e51222e	0.20423195
223	0x3d8aaa24	0.06770733
224	0x3ddea950	0.108721375
225	0x3e403330	0.18769526
226	0x3dc52c7b	0.096276246
227	0x3ca60604	0.02026654
228	0x3d2a78b9	0.041619036
229	0xbd7e8e20	-0.06214726
230	0xbd30aea4	-0.0431353
231	0xbc681bb5	-0.014166762
232	0xbdd215d0	-0.10258067
233	0x3c4ae5fe	0.012383936
234	0x3d09eeec	0.03367512
235	0xbc875746	-0.016521107
236	0x3da0bece	0.07848893
237	0xbd7fddcb	-0.062467378
238	0xbc29c0d7	-0.010360918
239	0xbca3c657	-0.019992037
240	0x3d2e02bb	0.042483073
241	0x3d6ece0d	0.058301974
242	0xbd353f9b	-0.044250112
243	0x3d1c74da	0.038197376
244	0xbdec3bd9	-0.115348525
245	0x3c88fa18	0.016720816
246	0x3cafd629	0.021464424
247	0x3c16e209	0.009209164
248	0x3d0bd0ed	0.034134794
249	0x3dae5455	0.08512179
250	0x3dd1402e	0.102173194
251	0x3d5236b6	0.051321708
252	0x3e49db7b	0.19712631
253	0x3e6ef48b	0.23335473
254	0x3e3259e5	0.17417105
255	0x3dde5ea0	0.10857892

arith.constant2 f4 [10]
0	0x3cd8ebfc	0.026479714
1	0xbe539f4c	-0.20666236
2	0x3d9489b3	0.072528265
3	0x3e14be0e	0.14525625
4	0xbe3ff843	-0.18747048
5	0x3e6fdba9	0.23423637
6	0x3da17764	0.078841
7	0x3d9e39a7	0.0772584
8	0xbe051670	-0.1299684
9	0xbe92c911	-0.28669026

arith.constant3 f4 [128]
0	0xbe25cb21	-0.16190769
1	0xbcee2320	-0.029069483
2	0x3e32c376	0.17457375
3	0xbc89ceaa	-0.016822178
4	0xbdf51bbe	-0.11968182
5	0x3e87f290	0.26552248
6	0xbc95cc19	-0.018285798
7	0x3db3f322	0.08786608
8	0x3e52344e	0.20527765
9	0x3e6bece3	0.23039584
10	0x3d42b0f1	0.047532026
11	0x3ed9d680	0.42546463
12	0x3ddad26c	0.10684666
13	0x3d938d44	0.07204679
14	0x3da7d41f	0.08194756
15	0x3d4afcaf	0.049557384
16	0x3d330e9a	0.043715097
17	0x3e2b3120	0.16717958
18	0x3d8ea78e	0.06965552
19	0xbc92f952	-0.01794115
20	0x3e9019ab	0.28144583
21	0x3d1a46ca	0.037665166
22	0x3d54f8b3	0.05199499
23	0x3e88fafc	0.26753986
24	0xbe6775d3	-0.2260354
25	0xbc91949b	-0.017771056
26	0xbcad45e1	-0.021151485
27	0x3e399e47	0.18126784
28	0x3d64ef9e	0.05589258
29	0xbd93843b	-0.07202955
30	0x3e053b58	0.13010919
31	0x3e54d94b	0.20786016
32	0x3e2b89d2	0.16751793
33	0xbc489402	-0.012242319
34	0xbd02dc22	-0.031948216
35	0x3ea88f81	0.32921985
36	0x3e28983d	0.16464324
37	0xbc44dc3a	-0.012015397
38	0x3e2add13	0.16685896
39	0xbd556019	-0.0520936
40	0x3d07c61c	0.033147916
41	0xbe221674	-0.15828878
42	0x3d7e5cb4	0.062100127
43	0x3e17b78f	0.14816116
44	0x3e905ede	0.28197378
45	0x3d5d505a	0.054031707
46	0x3d22c5e1	0.039739493
47	0x3e7e1aab	0.2481486
48	0x3e7d92c3	0.24763016
49	0x3d18a621	0.037267808
50	0x3d4d228a	0.050081767
51	0x3e14e8a0	0.14541864
52	0xbc807a51	-0.015683325
53	0x3e2bbc20	0.16770983
54	0xbe3abc31	-0.18235852
55	0x3df0d7ff	0.11759948
56	0xbdd5916a	-0.10428126
57	0xbceda29e	-0.029008206
58	0x3e1f415d	0.15552278
59	0x3ce7473c	0.02823221
60	0x3e2257fb	0.15853874
61	0x3e021034	0.12701494
62	0xbd243bb9	-0.04009602
63	0x3d301e14	0.042997435
64	0x3ebb2d77	0.36558124
65	0x3e33bacb	0.17551725
66	0xbd229b60	-0.03969896
67	0x3c58106d	0.01318751
68	0x3e9970f1	0.2996898
69	0x3eb5eadd	0.3553075
70	0xbcc1a60c	-0.023638748
71	0xbda85b4e	-0.0822054
72	0xbdaa2024	-0.083069116
73	0x3e432c6f	0.19059919
74	0x3e6aa5c4	0.22914797
75	0x3e71a4f9	0.23598088
76	0x3d75f304	0.06004621
77	0xbd9691c0	-0.07352018
78	0x3ca788e4	0.020451017
79	0x3e2eec23	0.17082267
80	0xbcf31089	-0.02967097
81	0x3e9098ec	0.2824167
82	0x3e92510f	0.28577468
83	0xbe566d90	-0.20940232
84	0xbc758e64	-0.014987562
85	0x3e534c22	0.20634511
86	0xbdcd7e77	-0.10033887
87	0x3eca7ed9	0.39549902
88	0x3e1a6ff7	0.15081774
89	0xbd89fef5	-0.06738082
90	0x3e99c8dd	0.3003606
91	0xbd3ce02b	-0.04611222
92	0xbcea2d17	-0.028585954
93	0x3d209446	0.039203905
94	0xbd15d2f2	-0.036578126
95	0x3e215972	0.15756777
96	0x3e857d32	0.2607208
97	0x3c57ff96	0.013183495
98	0x3d1b183a	0.0378649
99	0x3e047669	0.12935795
100	0xbc757b43	-0.014983001
101	0xbdb81b73	-0.089896105
102	0x3c2655c1	0.010152281
103	0xbc87976d	-0.016551698
104	0x3e9133c4	0.28359807
105	0x3df9de8c	0.122006506
106	0x3c4f9be3	0.012671444
107	0x3ec70fc9	0.3887923
108	0x3ebdecd2	0.37094742
109	0xbe49a871	-0.19693162
110	0x3d3c0f0c	0.045912787
111	0x3e036e9a	0.1283516
112	0xbe1bd618	-0.15218389
113	0xbe10bac3	-0.14133744
114	0xbc4a8831	-0.012361572
115	0xbe41f637	-0.1894158
116	0xbcb37cf9	-0.021910178
117	0xbcee673c	-0.02910196
118	0x3dd22839	0.10261578
119	0x3d03e8c0	0.03220439
120	0xbe88066e	-0.26567405
121	0xbe774012	-0.24145535
122	0x3ea7a104	0.32740033
123	0x3dfdd163	0.12393453
124	0x3d83d427	0.06436949
125	0xbe06fdff	-0.1318283
126	0xbdb5b351	-0.088720925
127	0xbe096df6	-0.13420853
